results/May_16_1/models/gruLD_1SQ_2HU_2/model.pth (torch, 2823 bytes, 6 tensors)

rnn.weight_ih_l0 f4 [6, 28]
00000000: d5e5 633e 7e60 16be c2ce e83d bce0 c1be
00000010: a920 b9be 3e53 0a3f 6f94 823e 364b 50be
00000020: 1b59 f9bd b9d3 40bf 3dc5 04bf 0e16 c7bd
00000030: fdac 94be 78bf df3c 5962 be3e 138e ce3e
00000040: 4ef4 d8bd d0df 91be a21c 7cbe a73a 003e
00000050: ac17 1c3e 18cf 20bf 2cfa 1a3e 8ad8 d03e
00000060: f8fc df3e 65cf 55bf d2d1 23bf fed4 23be
00000070: 7b4a b9be 37ca fa3c 1283 843e 1d17 cbbc
00000080: ebe4 033f d3dc a43e b43a 333e 1f88 473f
00000090: ee3b 71be 5b2c 0a3d 0319 1f3f e211 4e3f
000000a0: de45 d53e 02ca 953e 0d34 18bf 17ad 10bf
000000b0: b214 ee3d d3f2 9e3e d452 9bbe cfc4 8f3d
000000c0: cad8 dfbe 8afe 0cbe 9d6d 543e 34d0 a13e
000000d0: 5d19 cbbe ebe2 373e 4e37 e53e 289a 663e
000000e0: 3280 44bf 9692 f43c 39ac 5c3e a33b adbd
000000f0: 37b4 b73e 5867 fe3e 5aba 2fbf be71 eebd
00000100: 4f45 a4bc 2aa3 3a3e ce77 fb3e 0bad ea3d
00000110: 5d4f f6bd 50ef 41be 3489 3c3f 39e0 223e
00000120: 1530 193f 62d9 cb3e 9759 97bd 8c33 9e3e
00000130: 2a7b 2f3f 7587 12be 345b 713f d4de e4be
00000140: 65ee 71bd 94a9 e5bd d593 153f ede8 22bf
00000150: e018 29bf ad42 10be 5e9b 363e c303 113e
00000160: b210 bf3c 294c 803e 20b0 843e 258e 27be
00000170: 9f5c 2ebe 4eb6 5dbe f591 31bf 8d6d 34bf
00000180: 20af 85bd a656 233e 2ffc bcbe c52d 0f3f
00000190: d693 cabe e173 3ebe e668 ee3e f5aa 343f
000001a0: efea 0bbf e21e 09bf 2147 b8be d562 063f
000001b0: afc8 1f3f 7b0a d13e 92da 083f 07a4 dcbd
000001c0: 7ec3 5b3f 82dc c9bd 0515 ca3e a39a 543f
000001d0: 5a9e 193f b2ba 51be fbc6 84be f124 313e
000001e0: 90fb 493e 778e e93c ee23 f5be 5e1c 6c3d
000001f0: cf30 1f3f 534b b43e 057a 993e 7950 60be
00000200: fdf4 bbbd 9bec 08bf 8eae b63e cdd5 793d
00000210: 8255 2a3f 9dd2 16bf d207 1c3f 2410 8c3e
00000220: 0690 91be 2e60 9f3e 8654 e13e f519 f7be
00000230: 4682 63be 31b2 483f 4501 7abe ca6e 36bf
00000240: 53b8 32be 1dea 493e d0ae 51be ef9f 7d3d
00000250: 008d fbbd bc63 6ebe 9546 5fbf 6c70 633e
00000260: fb0d d3be 5efa 1f3e eca8 19bf 19e8 28bf
00000270: edd1 9dbd e1ec f13e 5c92 f5be ad8f 923d
00000280: 5dd4 98be 95c2 de3e 597c 253e d8b8 f03e
00000290: 852a e3be 7d9f c83c 77f5 27bf f7cb 3abd
0.22255643 -0.14685246 0.11367561 -0.3786677 -0.3615773 0.5403327 0.2550387 -0.2034119
-0.12175199 -0.75323063 -0.5186346 -0.097210035 -0.2903823 0.02731298 0.37184408 0.4034277
-0.105934724 -0.28491068 -0.24620298 0.12522374 0.15243405 -0.62816 0.15134495 0.40790206
0.43747687 -0.83519584 -0.63992035 -0.15999219 -0.36189637 0.030614002 0.2588125 -0.024791295
0.51521176 0.32199726 0.17502862 0.7794208 -0.23558018 0.033733707 0.6214754 0.80496037
0.41654867 0.29255682 -0.59454423 -0.56514114 0.11625041 0.31044635 -0.3033663 0.0701996
-0.43720084 -0.13768974 0.20744939 0.3160416 -0.39667788 0.17957656 0.44768757 0.22519743
-0.7675811 0.029855054 0.21550073 -0.084586404 0.3587968 0.4968822 -0.68643725 -0.11642788
-0.02005258 0.18226305 0.4911484 0.114587866 -0.12026856 -0.18938947 0.73646855 0.15905847
0.5983899 0.39814287 -0.07390135 0.30898702 0.6854731 -0.14309485 0.9427979 -0.44701254
-0.05906524 -0.11213985 0.584287 -0.63636667 -0.6605358 -0.14087935 0.17832705 0.14161591
0.02332339 0.25058106 0.25915623 -0.16362818 -0.1702752 -0.21651575 -0.6936334 -0.7047966
-0.06527543 0.15951023 -0.3691115 0.55929214 -0.39565915 -0.18598892 0.46564406 0.7057336
-0.54655355 -0.5356275 -0.35991767 0.52494556 0.62415594 0.40828308 0.5345851 -0.10773473
0.8584517 -0.09856512 0.39469162 0.83048457 0.6000725 -0.20481375 -0.2593306 0.17299248
0.1972487 0.028510315 -0.47878975 0.05764424 0.6218385 0.35213718 0.29975906 -0.21905698
-0.09177587 -0.5348603 0.3568005 0.060994912 0.66536725 -0.5891512 0.6094943 0.27356064
-0.28430194 0.31128067 0.440098 -0.4826199 -0.22217664 0.783969 -0.24414547 -0.712628
-0.17453127 0.19718213 -0.20476842 0.061920103 -0.12282753 -0.23280233 -0.87217075 0.22210854
-0.41221604 0.15622851 -0.6002338 -0.6597915 -0.07706056 0.47251037 -0.47963226 0.0715631
-0.2984952 0.4350783 0.16160716 0.47016025 -0.44368377 0.024490112 -0.65608925 -0.045604672

rnn.weight_hh_l0 f4 [6, 2]
00000000: aa5d 96be b711 bdbe 9efc ba3e 3a4b f23e
00000010: e7d9 4c3e 5daf e83e 3634 d93c da9c a23e
00000020: bb31 af3e 2e42 dbbc 20a9 8f3e b761 e33c
-0.29368335 -0.36927578 0.36520857 0.47323018 0.20004998 0.45446292 0.026514154 0.31760293
0.3421763 -0.026764955 0.2805872 0.027756555

rnn.bias_ih_l0 f4 [6]
00000000: b720 47be 9a61 07bf f43f 9c3e af02 54be
00000010: 90d6 fbbe aa30 333f
-0.19446073 -0.52883303 0.30517542 -0.20704149 -0.49187136 0.6999613

rnn.bias_hh_l0 f4 [6]
00000000: 1c6e 9dbe 9197 4e3d 327b 423f 250f 90be
00000010: 5a03 dbbd 00bf 8bbe
-0.3074807 0.050437514 0.7596923 -0.28136554 -0.10693999 -0.2729416

fc.weight f4 [3, 2]
00000000: 56ba 723f c0a8 0bbf 3ab2 77be e012 0d3f
00000010: 03cb d9be 4d09 7c3d
0.94815576 -0.5455437 -0.24189082 0.55106926 -0.42537698 0.061532307

fc.bias f4 [3]
00000000: 3277 5a3e d7b8 fa3c 7531 17bd
0.21334532 0.030605717 -0.0369124
