results/May_16_1/models/gruLD_1SQ_2HU_1/model.pth (torch, 2503 bytes, 6 tensors)

rnn.weight_ih_l0 f4 [3, 28]
0	0xbf706d56	-0.93916833
1	0xbf510322	-0.81645405
2	0x3e871144	0.2638036
3	0x3f16dca7	0.5893044
4	0xbf5a0448	-0.8516278
5	0xbf4b421a	-0.7939774
6	0x3e11c8b3	0.14236717
7	0x3e255f6a	0.16149679
8	0xbf22baa1	-0.63566023
9	0x3eb2f3fe	0.34951776
10	0x3f3813ac	0.71905017
11	0x3d0cc925	0.034371514
12	0xbede2e52	-0.43394715
13	0x3f625aea	0.88419974
14	0x3f42e540	0.7613106
15	0x3e953b6c	0.29146898
16	0xbeb21b17	-0.34786293
17	0xbe1a0a77	-0.15043055
18	0x3f20cd71	0.6281348
19	0xbf4c0b87	-0.7970509
20	0xbf0dc9d7	-0.5538611
21	0xbf4700a3	-0.77735347
22	0xbbca3db4	-0.0061719064
23	0x3e821c09	0.25412014
24	0x3e2486a2	0.16066983
25	0xbf7f72a2	-0.9978429
26	0x3eccf0ce	0.4002747
27	0x3f0ca3cb	0.5493743
28	0x3da6d894	0.08146778
29	0x3e9d8a0f	0.30769393
30	0x3f4f1b44	0.8090098
31	0x3e5e9ce7	0.21739541
32	0x3f625f9d	0.88427144
33	0x3f1f2e47	0.6217999
34	0x3d8da310	0.06915867
35	0x3ecbeda7	0.39829752
36	0x3f328790	0.697381
37	0xbef84c2a	-0.4849561
38	0x3f15575c	0.58336425
39	0xbdeb4c41	-0.11489154
40	0xbd4c86da	-0.049933292
41	0xbf47c51c	-0.7803514
42	0xbf28f358	-0.65996313
43	0x3ef1bea7	0.4721577
44	0x3ea0d318	0.31411052
45	0x3ea91ef2	0.33031422
46	0x3e99fbc2	0.30074888
47	0xbf18025e	-0.5937861
48	0xbde09e0c	-0.10967645
49	0x3ee7a2c7	0.45241377
50	0xbf27e317	-0.65580887
51	0xbef1da0c	-0.4723667
52	0xbde564fb	-0.11200901
53	0x3ef72a4c	0.48274457
54	0x3e8abf40	0.27099037
55	0xbf73b52a	-0.9519831
56	0xbef0ca58	-0.47029376
57	0x3ebad1fc	0.3648833
58	0xbe5c1a5b	-0.21494429
59	0xbf662c4c	-0.8991134
60	0xbf050223	-0.51956385
61	0x3defdf14	0.11712471
62	0x3cf16329	0.029466229
63	0xbf496070	-0.78662777
64	0x3f0183fc	0.5059202
65	0xbc0f3c9e	-0.00874248
66	0xbeebcebc	-0.46056163
67	0xbe9934d5	-0.2992312
68	0x3f584086	0.84473455
69	0x3e8034a4	0.25040162
70	0x3ee602c3	0.44923982
71	0x3f144f1d	0.5793322
72	0xbe63fd19	-0.22264518
73	0x3ee09206	0.43861407
74	0xbf66087a	-0.89856684
75	0x3e6e9e66	0.23302612
76	0xbf400ea4	-0.7502234
77	0x3ef6060b	0.48051485
78	0xbebdf6a3	-0.3710223
79	0x3f57644e	0.8413743
80	0xbe849dc7	-0.25901625
81	0x3de54b6e	0.11196028
82	0xbf241fee	-0.6411122
83	0xbdf9adaf	-0.12191331

rnn.weight_hh_l0 f4 [3, 1]
0	0x3f3ad2aa	0.729777
1	0xbedac973	-0.4273182
2	0x3e30ed1c	0.1727795

rnn.bias_ih_l0 f4 [3]
0	0xbec098a5	-0.3761646
1	0x3e4148d4	0.18875438
2	0x3f83d94a	1.0300686

rnn.bias_hh_l0 f4 [3]
0	0x3f378610	0.7168894
1	0x3f2e9c0b	0.6820685
2	0x3eaeed6d	0.34165516

fc.weight f4 [3, 1]
0	0xbf4ecefe	-0.80784595
1	0x3e8ab10e	0.27088207
2	0xbf280cda	-0.6564461

fc.bias f4 [3]
0	0x3eba7a15	0.36421266
1	0xbe68c659	-0.22731914
2	0x3e95d8de	0.2926702
