results/May_16_1/models/gruLD_2SQ_2HU_2/model.pth (torch, 3823 bytes, 10 tensors)

rnn.weight_ih_l0 f4 [6, 28]
000000 c7 f1 0f 3e 0e 52 f9 3e 95 05 e3 be d6 3e 6b 3e
       0.14057074 0.48695415 -0.44340196 0.22973189
000010 12 b3 81 bd 8f b1 f0 be 37 14 0c be ac 97 8c bc
       -0.06332983 -0.47010466 -0.13679586 -0.017162167
000020 80 26 a5 3d d8 5e b9 bd e6 61 5a 3e 34 d5 91 bd
       0.08063984 -0.09051293 0.21326408 -0.071207434
000030 7f d9 7c be 8a fe 97 3e 29 fd 04 3f 93 0d 14 be
       -0.24692343 0.29686385 0.5194879 -0.14458303
000040 2d 12 3f be c3 a6 14 3e 23 d1 a5 be 8e 09 06 bf
       -0.18659277 0.1451674 -0.3238612 -0.5235833
000050 d9 e8 a4 3d 5c 45 d0 be b8 f7 6e 3d 82 3e e5 3e
       0.08052225 -0.40677917 0.05834171 0.44774252
000060 99 a9 d5 3e 19 65 bd bd af 40 10 bd 30 9e 15 bf
       0.41730955 -0.092477985 -0.035217937 -0.584445
000070 16 29 96 be 9e e1 78 be d1 c2 04 bf 92 22 16 3d
       -0.2932822 -0.24304816 -0.51859766 0.036654063
000080 74 4c 89 3e f7 8b 71 bf fd a7 17 bf 90 e1 2e 3f
       0.26816142 -0.94354194 -0.59240705 0.6831293
000090 fa c8 09 bf a7 99 22 be 88 a9 c3 be 24 e3 c9 3e
       -0.5382229 -0.15878926 -0.3821528 0.39431107
0000a0 58 31 9f ba cb cf db 3e 91 70 11 bf 78 53 ea 3e
       -0.0012145443 0.4293197 -0.5681239 0.45766807
0000b0 8c e6 a1 be 14 2b 4f 3e 80 c9 f7 3e c9 01 22 3f
       -0.31621206 0.20231277 0.4839592 0.63283974
0000c0 8a 7c 09 3e 8d 1c 25 bf 2c 4f c0 3e e5 e6 3d 3f
       0.13426414 -0.6449669 0.37560403 0.7418044
0000d0 b2 04 23 3f ba 3f ff be d7 1d fe 3e eb 5b b1 3e
       0.6367904 -0.49853307 0.4963214 0.3464044
0000e0 ab e1 34 bf 03 7b 5a bd 8b 94 a4 3c 2f 0a cb 3b
       -0.7065684 -0.05333997 0.020090362 0.0061962823
0000f0 0d 7e 02 bf 4c 76 03 3f e9 01 9b be a7 c9 1f bf
       -0.5097359 0.5135238 -0.30274895 -0.6241707
000100 98 5d 14 3f 00 5f eb 3e 8d 44 dd 3e 22 d2 c1 3e
       0.5795531 0.45970917 0.43216363 0.3785563
000110 30 b4 17 3f a2 ef a1 3e 40 d7 cd be bd 5d 4b be
       0.5925932 0.31628138 -0.40203285 -0.19859977
000120 59 3a 1f bd 6b 92 21 be 40 b1 ca 3e 74 a5 fa 3e
       -0.038874004 -0.1577851 0.39588356 0.48954356
000130 e5 f6 b2 be 4d 7c f0 3d 3f 91 56 3d c7 b4 2a 3f
       -0.3495399 0.117424585 0.05238461 0.66682094
000140 3c d1 0a bf 00 7e 37 3f bf a6 f2 3e ca 47 5c bd
       -0.54225516 0.71676636 0.47392842 -0.0537794
000150 6d f5 ad 3e bd a7 92 3d c1 50 57 be 1a 94 85 be
       0.33976308 0.071609 -0.21026899 -0.26089555
000160 12 43 2c 3f f3 a3 2f 3f 51 2e d7 be 2e 01 03 bf
       0.6728984 0.6860954 -0.42027524 -0.51173675
000170 d9 83 8b 3e c6 da 2e 3f ba e5 52 3f 07 4e f7 be
       0.2724903 0.6830257 0.82381785 -0.48301718
000180 be db 29 bf ce 01 03 3f fa 10 63 3e 08 1b 99 3e
       -0.66350925 0.5117463 0.22174445 0.29903436
000190 b0 33 10 3c 73 5e 35 3f e1 ff 48 3e ef 8c 16 3f
       0.008801386 0.70847243 0.1962886 0.588088
0001a0 32 22 ef be 0f 2e 67 bd 3f 5a e6 be 87 34 c0 3b
       -0.46705776 -0.05644041 -0.44990727 0.0058656367
0001b0 5a e6 1e be 08 27 e0 3e 22 0e af 3e b5 19 9d 3e
       -0.1551756 0.43779778 0.3419047 0.30683675
0001c0 0b 02 15 bc ef bc e2 3d ea fa 6c 3e 9b 0d 77 be
       -0.009094725 0.110711925 0.23142591 -0.24126284
0001d0 14 a6 aa 3e 0f b1 f6 3e db d7 4b 3d b8 91 cf 3c
       0.33329833 0.4818196 0.049766403 0.025338039
0001e0 68 ef 4b 3f 52 3c 2c 3f 3d 09 bc 3d 3e de 01 3e
       0.7966218 0.6727954 0.091814496 0.12682435
0001f0 2c 62 21 3c 46 8c 95 be 7f 55 45 be 5e fe 34 bd
       0.009850066 -0.29208583 -0.19270895 -0.044187896
000200 2c 3d cb 3e 06 9c b4 3e 91 6d 6e 3e d7 cd bb bd
       0.39695108 0.35275286 0.23283984 -0.0917012
000210 01 48 d3 3c fb bf d1 3d b8 70 7d 3e f4 b3 19 be
       0.02579117 0.102416955 0.2475003 -0.15010053
000220 1b ee 01 3f ca ae 21 3e 49 19 07 be 85 f0 ae bd
       0.50753945 0.15789333 -0.1319324 -0.08541969
000230 e2 c2 75 be 2c 6f ad 3e 0b 32 ff 3e c7 52 e7 bd
       -0.24000123 0.3387388 0.49842867 -0.112950854
000240 ac 4d 3e bf 55 1d 2c bf 8f f9 e7 3e a4 f9 bb be
       -0.7433727 -0.6723226 0.45307586 -0.36713898
000250 94 99 82 be ab eb fc be 59 29 c6 be ef 00 0a bf
       -0.25507796 -0.4939855 -0.3870342 -0.53907675
000260 0b e3 1a bf 47 19 04 bf f2 92 66 bd 70 af 13 be
       -0.6050269 -0.5160107 -0.05629248 -0.14422393
000270 e9 44 6d bd 43 c4 55 3e 22 b9 bf 3e e7 56 05 bd
       -0.057927046 0.20875649 0.37445933 -0.03255358
000280 64 8e 3a bf 3a 26 b2 3e d8 63 4a 3d 13 7f a8 3e
       -0.7287352 0.3479479 0.049411625 0.3290945
000290 9e cc 69 3e 8f 42 0e bf 8a 41 0b 3e 37 fb b8 3e
       0.22831962 -0.5557031 0.1359922 0.36129162

rnn.weight_hh_l0 f4 [6, 2]
000000 9b e1 00 3e 0d 84 10 3f e3 34 dd 3d b8 af e7 3e
       0.12586062 0.56451494 0.10801103 0.4525125
000010 f8 a4 00 3e e2 6b 85 be a4 6e 73 3f 1b d6 8c be
       0.1256293 -0.2605887 0.950907 -0.275071
000020 6f 37 0a bf 68 12 30 3e 43 81 d8 be 49 f4 01 3f
       -0.53990835 0.17194521 -0.4228612 0.50763375

rnn.bias_ih_l0 f4 [6]
000000 55 ff eb 3d 1a 66 b5 3e 58 31 8a 3d 5a be 3f bf
       0.1152331 0.3542946 0.06747693 -0.7489983
000010 4d 21 1e be ee b7 69 bd
       -0.1544239 -0.057060175

rnn.bias_hh_l0 f4 [6]
000000 09 90 59 3f ab cf 62 3c b6 06 ee 3d cb 24 d3 bb
       0.84985405 0.013843457 0.11622374 -0.006443595
000010 e4 b8 31 3e fe 50 f9 bd
       0.17355686 -0.12173651

rnn.weight_ih_l1 f4 [6, 2]
000000 be 79 d6 be cd 72 2e bd 61 7f 00 3f 5a 87 0b 3d
       -0.41889757 -0.04258995 0.50194365 0.03406463
000010 68 40 97 be 91 33 66 be 48 3b 58 3f 6e a1 ea be
       -0.29541326 -0.22480609 0.84465456 -0.45826286
000020 23 94 92 3e 11 4c 73 bf 3f e2 0d be d6 eb 5f be
       0.28628644 -0.95037943 -0.13855837 -0.21867308

rnn.weight_hh_l1 f4 [6, 2]
000000 7c a4 1d bf c3 c8 24 bf ee 9c 40 bf 5e 3a 44 be
       -0.6157911 -0.6436884 -0.75239456 -0.1916289
000010 58 42 09 3f 2c 0c 0d 3f 9a 43 e1 bc c3 71 37 be
       0.5361686 0.550967 -0.027498055 -0.1791449
000020 40 10 6c 3f 23 f8 c5 3c 33 3b ed 3e 53 c3 5f bd
       0.92212296 0.024166172 0.46334228 -0.054629635

rnn.bias_ih_l1 f4 [6]
000000 32 f5 14 3f 74 eb da 3e 53 70 82 bf 2e 57 8f 3e
       0.5818664 0.4275776 -1.0190529 0.279962
000010 4f 11 f7 3d 3b c5 78 bf
       0.12063848 -0.9717595

rnn.bias_hh_l1 f4 [6]
000000 df 3a cf be b2 cc 7d bc 1e 59 4c 3e 0e f7 ce be
       -0.40474603 -0.015490698 0.1995587 -0.40422863
000010 b3 9e 9e bd c6 50 75 3d
       -0.07745113 0.059891485

fc.weight f4 [3, 2]
000000 69 1e 80 3f 0f 95 ed 3e 98 0b 38 bf ad ad 67 be
       1.000928 0.46402785 -0.7189269 -0.22624846
000010 6f 9e a2 be 56 96 42 3f
       -0.317615 0.76010644

fc.bias f4 [3]
000000 98 0d 4c 3e 09 f5 de bd 95 2b 9c 3e
       0.1992706 -0.108865805 0.30502
