results/May_16_1/models/gruLD_1SQ_1HU_2/model.pth (torch, 2823 bytes, 6 tensors)

rnn.weight_ih_l0 f4 [6, 28]
0	0xbf5ab68e	-0.85434806
1	0xbe93a773	-0.2883869
2	0xbf0fb2da	-0.5613228
3	0xbeaf1657	-0.3419673
4	0x3cc4e2fd	0.024034018
5	0xbde9b8af	-0.11412179
6	0x3f2bd66a	0.67124045
7	0x3ec88db7	0.3917062
8	0xbf1c57af	-0.61071295
9	0x3e222368	0.15833819
10	0x3e1300c1	0.14355756
11	0xbdf546db	-0.11976405
12	0xbe897f79	-0.26855066
13	0x3f101013	0.5627453
14	0x3f6053b8	0.87627745
15	0x3d0f228d	0.03494506
16	0x3c67e9ed	0.014154893
17	0x3f2ed1a1	0.6828862
18	0xbedd5b4a	-0.4323371
19	0xbf0423f0	-0.51617336
20	0x3ebcad28	0.36850858
21	0x3e8bb155	0.2728373
22	0x3ec02b3b	0.37532982
23	0xbf0f7b7f	-0.56047815
24	0xbf33df19	-0.70262295
25	0xbeb018c8	-0.34393907
26	0xbc70cdbc	-0.014697488
27	0xbea4b985	-0.3217279
28	0xbd01c7b4	-0.031684592
29	0x3ef97752	0.48723847
30	0x3ed7664c	0.42070234
31	0x3e5abe2e	0.2136161
32	0xbe8ef558	-0.27921557
33	0x3e8195e2	0.25309664
34	0xbeacc057	-0.33740494
35	0x3e09d13e	0.13458726
36	0x3e9a128b	0.30092272
37	0x3ef3f0f5	0.47644773
38	0xbe9586b8	-0.29204345
39	0x3e8ffcc0	0.2812252
40	0xbf099968	-0.53749704
41	0x3f25fd78	0.6483989
42	0x3e91182a	0.28338748
43	0xbf5fece8	-0.87470865
44	0x3f12b2f9	0.5730434
45	0xbee45c63	-0.44601735
46	0x3f0afab3	0.54288787
47	0x3f0871c8	0.53298616
48	0xbeb61f04	-0.35570538
49	0xbf1872be	-0.5955008
50	0x3e7592e9	0.23981823
51	0xbec44de6	-0.38340682
52	0xbeaceb7b	-0.33773407
53	0xbe8ada97	-0.27119896
54	0x3f1eb932	0.62001336
55	0x3dcb5f85	0.09930328
56	0x3f201bcf	0.6254243
57	0xbe1c99d4	-0.15293056
58	0xbf3fee72	-0.74973214
59	0xbebae5b4	-0.36503375
60	0xbe44adef	-0.19206975
61	0xbdf65748	-0.12028366
62	0xbea2c8fa	-0.31793958
63	0xbc998e07	-0.018744482
64	0x3f2171a7	0.63064045
65	0xbe354ae7	-0.17704354
66	0x3cf5c7e3	0.03000254
67	0xbf055197	-0.5207762
68	0x3e251551	0.16121413
69	0xbea2af00	-0.3177414
70	0xbe64169f	-0.22274254
71	0x3efc88d3	0.4932314
72	0x3f4bba48	0.7958112
73	0x3f26d570	0.6516943
74	0x3eff15fc	0.4982146
75	0x3e17a27a	0.14808074
76	0xbf030397	-0.5117735
77	0xbec7efb1	-0.39050058
78	0x3f3c00ba	0.7343861
79	0x3f456fef	0.7712392
80	0x3f22a8ae	0.63538635
81	0xbd7e282d	-0.062050033
82	0x3ebf7421	0.37393287
83	0xbf180615	-0.5938428
84	0xbe6ec3e5	-0.23316915
85	0xbc00e67a	-0.00786745
86	0x3dd8dda4	0.105891496
87	0xbe857ba2	-0.26070887
88	0xbefbda95	-0.49190202
89	0x3ed13f7c	0.40868747
90	0xbead679c	-0.3386811
91	0xbea4dcd3	-0.32199726
92	0x3d6b625d	0.057466853
93	0xbf2baf72	-0.67064583
94	0x3e94a86f	0.29034755
95	0xbee450d1	-0.44592908
96	0x3ef8b624	0.48576462
97	0xbedd46be	-0.43218035
98	0xbeca4e9a	-0.39513093
99	0xbed57b4f	-0.4169564
100	0x3ee5f6a5	0.44914737
101	0xbe8e0012	-0.2773443
102	0x3ed414b2	0.4142204
103	0x3edb52bc	0.4283656
104	0xbeffb16c	-0.4994005
105	0xbe43d4d0	-0.1912415
106	0xbeb9e4f5	-0.36307493
107	0xbda821b6	-0.08209555
108	0x3e113d33	0.14183502
109	0x3edd92d7	0.43276092
110	0xbe091bed	-0.13389559
111	0x3e17c3f4	0.14820844
112	0xbe9bdf0f	-0.30443618
113	0x3dfc585b	0.1232154
114	0xbe8c0724	-0.27349198
115	0xbf148b64	-0.58025193
116	0x3ec39f5e	0.38207525
117	0x3e72cab2	0.23710135
118	0xbaf23cac	-0.0018481216
119	0x3f00a81d	0.5025652
120	0xbf088ae0	-0.53336906
121	0xbf0a55e9	-0.5403734
122	0x3eba9bd9	0.36447027
123	0xbf579063	-0.8420469
124	0xbf290be0	-0.66033745
125	0xbe42f9a1	-0.19040538
126	0xbd0da0f9	-0.034577344
127	0x3f1178f4	0.56825185
128	0xbf33c167	-0.70216984
129	0x3ecac623	0.3960429
130	0x3e5e26b7	0.21694456
131	0x3ec56f1c	0.38561332
132	0xbe86b4c6	-0.26309794
133	0x3f0bee6d	0.54660684
134	0xbed18dd5	-0.40928522
135	0x3e7034df	0.23457669
136	0x3e623c31	0.22093274
137	0xbf5bafc3	-0.85815066
138	0xbe450d40	-0.19243336
139	0x3e901f0b	0.28148684
140	0x3eb74814	0.3579718
141	0x3f4456ec	0.7669513
142	0x3e84ddb6	0.25950402
143	0xbdf411d5	-0.11917464
144	0x3f124b8d	0.5714653
145	0xbf06784f	-0.52527326
146	0xbe4b1e7a	-0.19835845
147	0x3d10a697	0.035315122
148	0x3ea23dfd	0.31687918
149	0xbcb9fb47	-0.022702826
150	0xbe135894	-0.14389259
151	0x3e32b6f7	0.17452608
152	0xbf351840	-0.7074013
153	0xbee6a950	-0.4505105
154	0xbf041563	-0.51595134
155	0x3e43fedf	0.19140194
156	0x3ed65f5f	0.41869637
157	0xbe232064	-0.15930325
158	0x3f081115	0.53151065
159	0x3ddf47b9	0.10902352
160	0xbe96fdbe	-0.29490465
161	0xbd19dadb	-0.037562232
162	0x3e755546	0.2395831
163	0xbedda8e5	-0.4329292
164	0xbecd75d9	-0.40128973
165	0x3e84881c	0.25885093
166	0x3e342cd0	0.1759522
167	0x3f86d0df	1.0532492

rnn.weight_hh_l0 f4 [6, 2]
0	0x3e90a4dc	0.28250778
1	0xbf1546d6	-0.5831121
2	0x3f00b331	0.50273424
3	0x3f05efd5	0.5231908
4	0x3f0f6b7f	0.560234
5	0xbcfd4f00	-0.03092146
6	0xbebeb3e1	-0.37246612
7	0x3eb73316	0.35781163
8	0x3e108cf8	0.14116275
9	0x3f329113	0.69752616
10	0xbf2c5125	-0.67311317
11	0x3e165434	0.14680558

rnn.bias_ih_l0 f4 [6]
0	0x3dd08899	0.10182304
1	0xbf065721	-0.524767
2	0xbf5d0b05	-0.8634494
3	0xbccc5fb4	-0.024947979
4	0x3f1dd075	0.61646205
5	0xbe9a18ba	-0.3009699

rnn.bias_hh_l0 f4 [6]
0	0x3e845fe8	0.2585442
1	0xbf1b6a50	-0.60709095
2	0xbf552356	-0.83257043
3	0x3ea6d17b	0.32581696
4	0x3e398220	0.18116045
5	0x3de24e52	0.11050095

fc.weight f4 [3, 2]
0	0xbf412314	-0.7544415
1	0xbf18aabd	-0.59635526
2	0x3f9a5eb7	1.2060155
3	0xbedc5d88	-0.4304011
4	0x3e1ca62a	0.15297762
5	0x3f02c492	0.5108119

fc.bias f4 [3]
0	0x3da6cc55	0.08144442
1	0xbe564804	-0.2092591
2	0x3d321925	0.04348101
