results/May_16_1/models/gruLD_1SQ_1HU_1/model.pth (torch, 2503 bytes, 6 tensors)

rnn.weight_ih_l0 f4 [3, 28]
0	0x3f322b35	0.6959718
1	0x3f1d66d9	0.6148506
2	0xbf0fa1a7	-0.56106037
3	0x3f56c4ea	0.83894217
4	0xbe7dea40	-0.2479639
5	0x3dba9c71	0.0911187
6	0xbf36c88a	-0.7139975
7	0x3f2158de	0.63026226
8	0x3e719350	0.23591352
9	0xbd674336	-0.05646058
10	0xbf011296	-0.50418985
11	0xbee436c0	-0.4457302
12	0x3f918b29	1.1370593
13	0x3eaea410	0.34109545
14	0xbea3acb3	-0.31967697
15	0x3f116a6e	0.56803024
16	0xbf1de835	-0.61682445
17	0x3f0e6728	0.55626154
18	0xbe7d5e2a	-0.24742952
19	0x3f634e8d	0.88791734
20	0x3ece7be0	0.40328884
21	0x3f795efc	0.9741056
22	0xbeaa7a49	-0.3329642
23	0xbf247fd4	-0.6425755
24	0x3e4c8856	0.19973883
25	0x3ef586d7	0.47954437
26	0x3ecb733f	0.39736363
27	0xbeffe706	-0.49980944
28	0xbf58ca87	-0.8468403
29	0xbf2c186a	-0.6722475
30	0x3f226b6d	0.6344517
31	0xbf09ef9a	-0.5388123
32	0xbf832377	-1.0245198
33	0xbeec0483	-0.46097192
34	0xbedbf32a	-0.42958957
35	0xbf21a3eb	-0.63140744
36	0xbf024331	-0.50883776
37	0xbd55966a	-0.0521454
38	0x3f210a92	0.62906754
39	0x3f68ecef	0.9098653
40	0x3f25af43	0.64720553
41	0xbe308cf3	-0.17241268
42	0xbe1b771c	-0.15182155
43	0xbf033ffa	-0.51269495
44	0xbe7d9053	-0.24762087
45	0x3f2f823f	0.68558115
46	0xbf405229	-0.75125366
47	0xbe07de37	-0.13268362
48	0xbf7871ef	-0.9704885
49	0xbef034e5	-0.46915355
50	0xbdb3c809	-0.08778388
51	0xbf4ee404	-0.80816674
52	0xbf81c1c9	-1.0137264
53	0x3f1a2c15	0.60223514
54	0x3ca34a17	0.01993279
55	0x3f81f539	1.0152961
56	0xbf2a925e	-0.6662959
57	0x3f50f467	0.8162293
58	0xbf889046	-1.0669029
59	0x3f317254	0.69315076
60	0x3e8cc90d	0.2749714
61	0x3e1ae4e2	0.15126374
62	0xbf576735	-0.84141856
63	0x3d5b4c7e	0.053539746
64	0xbf3871aa	-0.7204844
65	0x3f30924f	0.6897325
66	0x3e29a71a	0.1656765
67	0xbf4412a1	-0.76590925
68	0x3ea294c6	0.3175413
69	0xbe0a76d4	-0.13521892
70	0xbe8c7b56	-0.27437848
71	0xbf752bd4	-0.9577
72	0xbecfe82c	-0.4060682
73	0x3f0a40a4	0.54004884
74	0xbe9ad4f2	-0.3024059
75	0xbf7bf819	-0.9842544
76	0x3f4245a5	0.7588752
77	0x3e92610e	0.28589672
78	0x3d84af86	0.06478791
79	0x3e8b2d99	0.27183226
80	0x3e96800e	0.29394573
81	0x3f2a5386	0.66533697
82	0xbe996c2a	-0.29965335
83	0x3edf32f1	0.43593553

rnn.weight_hh_l0 f4 [3, 1]
0	0xbf0f9398	-0.56084585
1	0x3eea1ad4	0.45723593
2	0x3e6cd980	0.23129845

rnn.bias_ih_l0 f4 [3]
0	0xbf113d4d	-0.5673416
1	0xbe8e46be	-0.27788347
2	0xbe84e4f7	-0.25955936

rnn.bias_hh_l0 f4 [3]
0	0x3f21772b	0.6307246
1	0xbe3c4b7e	-0.18388173
2	0xbedde7e4	-0.4334098

fc.weight f4 [3, 1]
0	0xbea49add	-0.321494
1	0x3f303d50	0.68843555
2	0xbe450ea4	-0.19243866

fc.bias f4 [3]
0	0x3de9f091	0.114228375
1	0x3da60328	0.08106071
2	0xbe346d01	-0.17619707
