results/May_16_1/models/gruLD_2SQ_2HU_1/model.pth (torch, 3503 bytes, 10 tensors)

rnn.weight_ih_l0 f4 [3, 28]
0	0xbf61c4d6	-0.8819097
1	0x3f532db8	0.82491636
2	0x3b8e92b4	0.0043509845
3	0xbf8f0b62	-1.1175349
4	0xbf4a57fb	-0.790405
5	0xbecff403	-0.40615854
6	0x3e8e9244	0.27845967
7	0x3f4ebe1c	0.80758834
8	0xbf47ec41	-0.7809487
9	0xbe2c8b91	-0.16850115
10	0xbf532aed	-0.82487375
11	0x3e53dbf1	0.2068937
12	0xbe8420bb	-0.2580622
13	0x3f2fe4a8	0.68708277
14	0x3f0be5cd	0.54647523
15	0x3f44cfe6	0.7687973
16	0xbe764c9f	-0.24052666
17	0xbf525a1d	-0.8216875
18	0x3e2c18ce	0.16806337
19	0x3f1af0f0	0.6052389
20	0x3c2b44a7	0.01045338
21	0x3f29cedf	0.66331285
22	0x3f035d1d	0.51313955
23	0xbf5fdcc5	-0.8744624
24	0xbf18cc5f	-0.59686846
25	0xbe540a54	-0.20707065
26	0xbf666fc6	-0.900143
27	0xbda4bc3c	-0.08043715
28	0xbf1230c1	-0.5710564
29	0xbeac4f79	-0.33654383
30	0xbf838822	-1.027592
31	0x3ef4db6e	0.47823662
32	0xbeb41886	-0.3517496
33	0xbf352421	-0.70758253
34	0x3e329f1a	0.17443505
35	0xbd62614a	-0.055268563
36	0xbeb10844	-0.3457662
37	0x3cfeac18	0.03108792
38	0xbe07c367	-0.13258134
39	0xbf42bd0c	-0.7606971
40	0xbf48857d	-0.78328687
41	0xbf0e7b6f	-0.55657095
42	0x3f0969df	0.5367717
43	0x3f128102	0.572281
44	0x3ea9f900	0.33197784
45	0x3efc0954	0.49225867
46	0xbe18f68d	-0.14937802
47	0x3efe5b00	0.49678802
48	0x3f3b375b	0.7313134
49	0xbcd2dfde	-0.025741514
50	0xbf07bd45	-0.5302318
51	0xbe0d8f31	-0.13824154
52	0x3ed138a4	0.40863526
53	0xbda1a93c	-0.07893607
54	0xbf17e7bc	-0.59337974
55	0x3c9d205d	0.019180471
56	0xbf7e8931	-0.9942809
57	0x3f177c3c	0.5917394
58	0x3f3fc7a2	0.7491399
59	0xbf8945d7	-1.0724438
60	0xbf54130b	-0.8284156
61	0x3e393e3d	0.18090148
62	0xbf21c7a3	-0.63195246
63	0x3f0a70b9	0.5407825
64	0xbe2a600b	-0.166382
65	0xbeb1cc2e	-0.3472609
66	0xbe3b8b5b	-0.18314879
67	0xbf5252f7	-0.82157844
68	0xbf587bc3	-0.84563845
69	0x3eacd230	0.3375411
70	0xbe9ca5ee	-0.30595344
71	0x3dc5d27e	0.09659289
72	0x3f50342f	0.81329626
73	0x3d90a86c	0.07063374
74	0x3f094c06	0.5363163
75	0xbe8ba722	-0.2727595
76	0xbe8ff793	-0.28118572
77	0x3c0df1de	0.008663623
78	0xbf72eb03	-0.9488985
79	0xbda025a1	-0.07819677
80	0xbd35a7b9	-0.044349406
81	0x3ef24186	0.47315615
82	0x3e286f5b	0.16448729
83	0x3db25031	0.087067015

rnn.weight_hh_l0 f4 [3, 1]
0	0x3d18ee4c	0.037336633
1	0x3f2f592c	0.6849544
2	0x3e840479	0.25784662

rnn.bias_ih_l0 f4 [3]
0	0x3e90809c	0.2822312
1	0xbf3983f4	-0.7246697
2	0xbe908afc	-0.28231037

rnn.bias_hh_l0 f4 [3]
0	0x3d34e16f	0.044160303
1	0xbf061e92	-0.52390397
2	0x3f2b697e	0.66957843

rnn.weight_ih_l1 f4 [3, 1]
0	0x3f4b5203	0.79422015
1	0x3f9409b9	1.1565467
2	0xbfa68443	-1.3009113

rnn.weight_hh_l1 f4 [3, 1]
0	0x3ef5b2aa	0.47987872
1	0x3f879ced	1.0594765
2	0xbef1bf55	-0.47216287

rnn.bias_ih_l1 f4 [3]
0	0xbfdb8d57	-1.7152508
1	0xbddeb3dd	-0.1087415
2	0xbeb4f659	-0.35344198

rnn.bias_hh_l1 f4 [3]
0	0xbde76baa	-0.11299832
1	0xbec542a2	-0.385274
2	0x3d982f91	0.074309476

fc.weight f4 [3, 1]
0	0x3f27f6ee	0.6561116
1	0xbf2a1d19	-0.6645065
2	0xbe97c496	-0.2964217

fc.bias f4 [3]
0	0xbe3e23d7	-0.1856836
1	0xbd5875ab	-0.052846592
2	0xbe0dfc16	-0.13865694
