results/May_16_1/models/gruLD_2SQ_1HU_1/model.pth (torch, 3503 bytes, 10 tensors)

rnn.weight_ih_l0 f4 [3, 28]
000000 aa fb b9 3d 51 c8 ab be a0 3d 0c 3f 17 ca 28 bf
       0.09081204 -0.33551267 0.5478153 -0.65933365
000010 4c 07 59 bf 8d 7b 5d 3f 65 35 e7 3e 7b ea e1 be
       -0.8477676 0.8651665 0.45157924 -0.44124207
000020 36 95 08 bd a8 3c 28 3f 26 2d b8 bc 8c 8d 54 bf
       -0.033345424 0.65717554 -0.022482466 -0.83028483
000030 14 1c 53 3e 17 a6 db bd 72 40 44 3e d2 f0 57 bf
       0.2061618 -0.107250385 0.19165209 -0.8435184
000040 f2 08 69 3e f4 d7 c1 be 33 ee cd be 58 f9 9f be
       0.22757319 -0.37860072 -0.40220794 -0.31244922
000050 00 60 35 3e 8b 5d b7 be fe c3 aa be 03 a5 f8 3d
       0.17712402 -0.35813555 -0.33352655 0.121408485
000060 44 27 16 bf d3 51 4a bf a1 66 bb bd 19 74 12 be
       -0.58653665 -0.79031104 -0.09150434 -0.143021
000070 8a 84 00 3e 1f a7 07 bf 76 a5 8b bd a5 10 86 be
       0.1255056 -0.5298938 -0.068186685 -0.26184574
000080 42 62 0c 3f 3e f6 98 3e 35 8e 11 bf 2c 98 5f bf
       0.5483743 0.29875368 -0.56857616 -0.8734157
000090 7b 57 52 bf a8 bf 04 bf 3b 93 29 3f f0 0e b3 3e
       -0.82164735 -0.51854944 0.6624028 0.34972334
0000a0 8c 55 4a 3f ad c9 8b bf f4 b2 bb 3e e7 26 31 3f
       0.79036784 -1.0920922 0.36659968 0.69199985
0000b0 78 bd 2c bf 85 a4 2f 3f 73 6c 01 be bf 1e c4 3d
       -0.67476606 0.6861041 -0.12639026 0.09576177
0000c0 95 80 39 3e 16 d2 8c 3f 64 b7 26 bf dd c8 52 3d
       0.18115456 1.1001613 -0.6512358 0.05146109
0000d0 97 16 fd be a0 d0 a4 3e 7f 30 a7 3e ab 9a d6 3e
       -0.49431297 0.32190418 0.32654187 0.41914877
0000e0 18 5b 34 3f 66 67 74 bf a6 8a 61 be b2 8e 79 be
       0.704515 -0.95470273 -0.22025546 -0.2437084
0000f0 ff 95 46 bf c4 70 e2 3e 19 ea 1b 3f e9 73 09 3f
       -0.77572626 0.44226658 0.6090408 0.5369249
000100 3a ff 06 3d b3 17 22 bf 50 24 10 bf 51 24 6f 3e
       0.032958247 -0.6331741 -0.5630541 0.23353697
000110 11 57 90 be fc c2 f2 bc 23 58 68 3f 21 b2 2c bf
       -0.28191426 -0.029633991 0.90759486 -0.67459303
000120 fc ed b0 3e ce f6 4c 3f 87 0b c9 be 3f 47 ac bd
       0.34556568 0.80064094 -0.39266607 -0.084120266
000130 4f 3b 08 bf 12 85 3d be 06 3f 01 bf 1c bf ff 3e
       -0.532155 -0.18507794 -0.5048679 0.49950492
000140 78 10 38 bf dd 89 20 be dd 62 cd be ab e7 07 be
       -0.7190013 -0.1567759 -0.4011449 -0.13271968

rnn.weight_hh_l0 f4 [3, 1]
000000 18 02 46 3f e8 d9 7d bf 2a 24 3e 3f
       0.77346945 -0.99160624 0.7427393

rnn.bias_ih_l0 f4 [3]
000000 9d c1 51 3e ee 09 7a bf 34 a1 4e be
       0.20484014 -0.976714 -0.20178682

rnn.bias_hh_l0 f4 [3]
000000 dd 17 09 3f ba 48 54 3f 70 a8 84 bf
       0.5355204 0.8292347 -1.0363903

rnn.weight_ih_l1 f4 [3, 1]
000000 75 ad b0 be c6 b1 b5 be 82 75 86 bf
       -0.34507337 -0.35487193 -1.050461

rnn.weight_hh_l1 f4 [3, 1]
000000 20 10 e7 3d bc 3e 7d bf 7c 8f b0 3e
       0.112823725 -0.9892385 0.3448447

rnn.bias_ih_l1 f4 [3]
000000 e3 d4 64 bf 63 a4 d1 3d dd 42 21 3e
       -0.8938734 0.102364324 0.15748163

rnn.bias_hh_l1 f4 [3]
000000 db 83 a6 be 98 a0 d6 be 34 e8 d9 be
       -0.32522473 -0.41919398 -0.4255997

fc.weight f4 [3, 1]
000000 39 ca 1a bf f2 3b d1 be d5 40 c6 bc
       -0.6046482 -0.40866047 -0.024200836

fc.bias f4 [3]
000000 07 c4 6c 3d 1e f1 89 3d 46 b0 5d 3e
       0.057804134 0.067354426 0.21649274
