results/May_16_1/models/gruLD_2SQ_1HU_2/model.pth (torch, 3823 bytes, 10 tensors)

rnn.weight_ih_l0 f4 [6, 28]
-0.63494235 0.83043593 0.3319868 -0.95020694 0.25096458 0.32360178 0.17485893 -0.8408574
-0.8898804 -0.7694094 0.05523956 -0.2629166 -0.20122248 -0.6109227 0.054807007 -0.07838885
-0.55622107 0.35519508 0.24176481 -0.42909792 0.619703 0.28026816 -0.2343736 0.6110358
-0.76947755 -0.73350656 0.2688614 0.36094472 0.11964449 0.4914849 0.0009965949 -0.7364754
0.21796687 0.08183797 0.0542586 0.3088625 -0.12355171 -0.44130123 -0.55583775 0.3967924
-0.557246 -0.40775695 0.5563618 -0.61375034 0.10520306 0.27938026 -0.115994565 0.56416607
-0.71919876 -0.09171536 -0.38177282 0.12780595 -0.67736924 -0.30137932 0.41825134 0.30211893
-0.011685904 0.20680235 0.24842899 -0.89483225 -0.12415677 0.572196 0.36121967 0.671608
-0.16703741 -0.35561737 -0.5019543 -0.38074595 0.53296566 0.09859003 -0.8665417 0.00977435
0.15398128 -0.13023351 0.70997214 0.44211352 0.83007574 0.6024815 -0.14731076 0.3095741
0.3605069 -0.07461693 0.49625897 -0.9544309 -0.12407748 -0.52657235 -0.19760862 -0.6569528
-0.46559054 0.0015950662 -0.2781599 -0.02203038 -0.16935968 -0.5348007 0.44606096 -0.635121
0.41330013 -0.49287346 -0.0010431855 -0.67206955 0.35398674 -0.052190214 0.62338 -0.15979557
0.23219058 0.49443254 -0.055866323 0.5096689 -0.21851858 0.023372438 0.43982163 0.5215148
0.6566056 -0.5529221 0.52929527 0.024346078 0.44849706 0.34482434 -0.07308874 0.046979945
0.7215458 -0.118875735 0.13445236 -0.2714045 0.036389112 0.60002303 -0.7119313 0.4294447
-0.10491087 0.13821256 -0.5374004 0.71926355 -0.44508353 0.12322746 -0.14498818 0.12046495
-0.5038561 0.84635735 0.1788981 -0.50163513 0.49683878 -1.1038413 0.5345091 0.20927954
-0.26055765 -0.05515879 0.13890819 -0.17558363 0.39821413 -0.20662512 0.3594478 -0.14663033
0.6899257 0.2723649 -0.5039547 -0.3827001 0.032367166 0.6214933 -0.14403607 -0.55360234
-0.4383703 -0.156484 -0.5674266 0.5104743 0.49296668 -0.13734393 0.06083508 -0.029719442
00000000: 958b 22bf 7397 543f 2dfa a93e c340 73bf
00000010: 6e7e 803e 22af a53e 380e 333e 6e42 57bf
00000020: 34cf 63bf 04f8 44bf e042 623d 019d 86be
00000030: 440d 4ebe 6e65 1cbf 507d 603d 558a a0bd
00000040: 8164 0ebf 21dc b53e 3291 773e b9b2 dbbe
00000050: dba4 1e3f 4f7f 8f3e a2ff 6fbe d86c 1c3f
00000060: 7bfc 44bf 16c7 3bbf 34a8 893e bfcd b83e
00000070: 2c08 f53d e9a3 fb3e 2da0 823a a789 3cbf
00000080: b532 5f3e aa9a a73d 443e 5e3d 3a23 9e3e
00000090: ae08 fdbd 3cf2 e1be 624b 0ebf 6028 cb3e
000000a0: ada7 0ebf 85c5 d0be ba6d 0e3f be1e 1dbf
000000b0: b474 d73d ee0a 8f3e 8f8e edbd 306d 103f
000000c0: 691d 38bf 43d5 bbbd ba77 c3be 90df 023e
000000d0: 1268 2dbf 644e 9abe 0a25 d63e 55af 9a3e
000000e0: 3c76 3fbc ffc3 533e 2b64 7e3e ba13 65bf
000000f0: e845 febd 707b 123f c9f1 b83e 80ee 2b3f
00000100: db0b 2bbe 7b13 b6be 1480 00bf 22f1 c2be
00000110: 7070 083f 92e9 c93d add5 5dbf 9824 203c
00000120: 45ad 1d3e ef5b 05be bcc0 353f b45c e23e
00000130: d87f 543f 3a3c 1a3f a2d8 16be 7f80 9e3e
00000140: 5c94 b83e c3d0 98bd a815 fe3e 9555 74bf
00000150: 551c febd 72cd 06bf ea59 4abe 0f2e 28bf
00000160: e261 eebe 8a11 d13a f96a 8ebe 0e79 b4bc
00000170: a06c 2dbe b3e8 08bf 1a62 e43e 4a97 22bf
00000180: 139c d33e e959 fcbe 7fbb 88ba c00c 2cbf
00000190: c03d b53e 68c5 55bd d595 1f3f 73a1 23be
000001a0: 5ec3 6d3e 4326 fd3e 16d4 64bd a979 023f
000001b0: 56c3 5fbe 8e77 bf3c 4d30 e13e fe81 053f
000001c0: 4e17 283f 4e8c 0dbf e57f 073f 6d71 c73c
000001d0: 68a1 e53e d18c b03e 8daf 95bd 0b6e 403d
000001e0: 3ab7 383f 1f75 f3bd e1ad 093e 88f5 8abe
000001f0: c00c 153d 1c9b 193f 2141 36bf 2de0 db3e
00000200: 83db d6bd 9887 0d3e 1393 09bf a821 383f
00000210: fde1 e3be ae5e fc3d c877 14be 54b6 f63d
00000220: b7fc 00bf e0aa 583f 1031 373e 296b 00bf
00000230: a761 fe3e ac4a 8dbf 97d5 083f 604d 563e
00000240: d067 85be 2fee 61bd f33d 0e3e 32cc 33be
00000250: b9e2 cb3e 8995 53be 8b09 b83e 4326 16be
00000260: f89e 303f 6a73 8b3e 2d03 01bf 44f1 c3be
00000270: 6f93 043d 2f1a 1f3f 317e 13be e2b8 0dbf
00000280: 1272 e0be 573d 20be df42 11bf 72ae 023f
00000290: 2166 fc3e e3a3 0cbe 342e 793d 3076 f3bc

rnn.weight_hh_l0 f4 [6, 2]
0.52302533 0.18871522 0.21300685 -0.49516764 -0.33027864 -0.31628174 0.3061753 -0.122296154
0.43778914 0.5576548 0.2482388 0.44929868
00000000: fde4 053f 903e 413e 781e 5a3e 9d86 fdbe
00000010: 481a a9be aeef a1be 02c3 9c3e 6876 fabd
00000020: e625 e03e 77c2 0e3f 5032 7e3e 7a0a e63e

rnn.bias_ih_l0 f4 [6]
-0.19210777 0.44881186 0.055739556 -0.55337745 0.44774008 -0.6442809
00000000: e6b7 44be abca e53e 294f 643d 25aa 0dbf
00000010: 303e e53e 98ef 24bf

rnn.bias_hh_l0 f4 [6]
0.13323708 -0.09175326 0.03293082 0.18082348 -1.1114979 -0.4499428
00000000: 4d6f 083e 22e9 bbbd 78e2 063d ca29 393e
00000010: 9045 8ebf e75e e6be

rnn.weight_ih_l1 f4 [6, 2]
0.019712448 0.10475006 0.90517056 0.07759574 0.46752554 0.5904753 0.10717846 -0.95085627
0.7451198 -0.040755436 -1.0156971 -0.888441
00000000: 007c a13c 3387 d63d 42b9 673f 84ea 9e3d
00000010: 825f ef3e 6429 173f 6180 db3d 516b 73bf
00000020: 2cc0 3e3f 2cef 26bd 5d02 82bf df70 63bf

rnn.weight_hh_l1 f4 [6, 2]
-0.44239995 -0.45686635 -0.50675315 -0.22952154 0.023444414 -0.4422456 0.086004436 -0.29455352
0.1585986 -0.17845863 -0.43401837 0.022537112
00000000: 3f82 e2be 63ea e9be 93ba 01bf b207 6bbe
00000010: 800e c03c 046e e2be 1823 b03d b8cf 96be
00000020: ac67 223e dcbd 36be a837 debe c09f b83c

rnn.bias_ih_l1 f4 [6]
-0.08343211 -0.029431676 0.29733235 -0.6384575 -0.8025389 0.03991598
00000000: 74de aabd b31a f1bc f23b 983e f371 23bf
00000010: 3073 4dbf f07e 233d

rnn.bias_hh_l1 f4 [6]
0.8123742 -0.29017305 -0.29952645 0.1601699 -0.62776357 -0.51795447
00000000: c1f7 4f3f 9091 94be 885b 99be 9403 243e
00000010: 1db5 20bf aa98 04bf

fc.weight f4 [3, 2]
-0.12770101 -1.1733402 -0.81821793 0.72894967 0.2618611 0.6808601
00000000: 0ec4 02be 0330 96bf bb76 51bf 729c 3a3f
00000010: a812 863e d94c 2e3f

fc.bias f4 [3]
-0.16263439 -0.29688054 0.028309656
00000000: a189 26be ba00 98be a7e9 e73c
